cnn.pth (torch, 250175 bytes, 10 tensors)

conv1.weight f4 [6, 3, 5, 5]
000000 bc b7 cd 3d a9 d5 32 3c c6 10 8c bd 24 45 64 bc
       0.1004481 0.010915198 -0.06839137 -0.0139325
000010 e5 5d 96 3d 95 6f 48 3b e2 b9 18 3d 93 12 d8 bd
       0.07342128 0.0030584086 0.037286647 -0.10550418
000020 98 00 10 bd 39 02 3c bd 94 62 ae bd d0 d6 af bd
       -0.035156816 -0.045900557 -0.08514896 -0.08585894
000030 7c a3 b2 bd 5b 0c 82 3d fc ac d9 3d 15 fb c0 bd
       -0.087225884 0.06350013 0.10628697 -0.0942289
000040 f0 16 96 bd d5 80 58 bd ac a4 a5 bd c4 17 5d bd
       -0.07328594 -0.05285724 -0.08088049 -0.053977743
000050 9e 07 ba 3d 85 24 c1 bd 96 9a d6 bb db 59 9b bc
       0.09083484 -0.09430794 -0.00654919 -0.018963745
000060 db 74 9e bd b3 c6 83 bd 2a 52 e1 bd 33 ee d5 bd
       -0.07737132 -0.06434383 -0.11002 -0.104458235
000070 a2 da 11 bd af a9 44 bd 59 67 83 bc 55 a5 a3 3c
       -0.035608895 -0.048013385 -0.016040491 0.019976297
000080 83 cb a8 3d 2a 1d 18 bd 83 8d ac 3d 0f 90 a9 bd
       0.08241942 -0.037137188 0.08425429 -0.0827943
000090 15 6f da 3d e9 84 75 3d 3f 6d 96 3d 89 ea 4d 3c
       0.106657185 0.059941206 0.07345056 0.012568125
0000a0 e9 f4 d1 3d a2 c5 00 3d cb ef 9e bd 56 fa 93 3c
       0.10251791 0.031438477 -0.07760581 0.018063705
0000b0 2f bc 48 bd 53 1a 80 3d f6 a1 d7 bd d1 49 c7 3c
       -0.04900759 0.06255021 -0.105289385 0.02432719
0000c0 1c 27 29 bd a2 7e 36 bd 37 73 93 3d f6 f6 fb bb
       -0.041297063 -0.04455436 0.0719971 -0.007689352
0000d0 c5 c2 7e bd af 5b b6 3c 8b 0b a2 3c d2 e5 19 bc
       -0.062197465 0.022260515 0.019780895 -0.009393172
0000e0 ad 96 b2 3d 94 46 c4 bd d5 9a 06 3c e2 f1 69 3d
       0.087201454 -0.09583774 0.008215626 0.057115443
0000f0 19 1b 4c 3d 1c d6 5b 3d 0a 2c cc bd 35 28 a4 bd
       0.04983053 0.053670987 -0.09969337 -0.080154814
000100 2e 00 87 bd 72 4d 00 3b de c6 58 bd 20 18 c0 bd
       -0.06591831 0.001957741 -0.05292403 -0.093796015
000110 71 1f de 3d 33 e3 56 bd 99 61 ad 3c f2 d1 87 3d
       0.10845841 -0.052462768 0.021164702 0.06631841
000120 98 9c 69 3d e9 af 78 bd c3 9c d6 3c 61 53 d4 3d
       0.057034105 -0.060714636 0.026197797 0.10367466
000130 12 ea d2 bd a8 cf 02 3b 4b 16 7a bd 83 ac cf 3d
       -0.102985516 0.0019960199 -0.061056416 0.10140326
000140 26 db b9 bd fb e4 71 bc 7b 49 01 bd 14 4f eb bc
       -0.09075002 -0.014764066 -0.031564217 -0.02872423
000150 0a 39 16 bd 3f 0c d9 3c 32 73 b0 3d e3 83 2a 3d
       -0.03667549 0.026495097 0.08615722 0.041629683
000160 c5 58 09 bd 10 2c bf bd 86 92 56 3d 06 76 0b bc
       -0.033531923 -0.09334576 0.05238583 -0.008512026
000170 37 0b a9 bd fe 03 98 bc 7a 83 bc 3d f8 e7 d2 bd
       -0.08254092 -0.018556591 0.09204765 -0.10298151
000180 90 35 3d bd 24 73 39 bd 25 6b bf bd 0f b5 e0 3d
       -0.04619366 -0.045275822 -0.09346608 0.10972034
000190 79 bd 5d bd 1e e7 5e bd 2c b8 16 bd 64 72 b5 bd
       -0.054135773 -0.05441963 -0.036796734 -0.08859709
0001a0 81 36 e5 3d 0c 4a d1 bd 18 99 81 3d 04 13 68 3d
       0.111920364 -0.102192014 0.063280284 0.05665876
0001b0 2c 77 65 3d d3 49 23 bd cc 27 a2 3d 65 cc d1 bd
       0.056021854 -0.039865326 0.07917747 -0.10244063
0001c0 62 3c 92 bc ac 6e c4 bd 27 a4 76 3b bb 3a 8e 3d
       -0.017851058 -0.095914215 0.0037634464 0.06944796
0001d0 9c a7 7a 3c 85 9a b5 3c 82 da 2b 3d ac 1e 41 bc
       0.01529875 0.022168407 0.041956432 -0.011787098
0001e0 0b f6 00 3d 4e e4 74 3d 3b e6 36 bd 61 57 cd 3d
       0.031484645 0.05978804 -0.04465316 0.10026432
0001f0 93 16 12 3d a8 1f b3 3c 13 2a e2 3c 51 e1 6a bd
       0.03566606 0.02186568 0.027607953 -0.057343785
000200 bc ba e1 bd ff 7a 03 3c 9e ba 33 3d 89 c4 ad bd
       -0.11021945 0.00802493 0.043879144 -0.08484752
000210 3e b4 95 bd b9 43 d4 bd a3 25 b3 3d ab bc 9d bd
       -0.07309769 -0.103644796 0.08747413 -0.07702001
000220 d1 7f f8 3b 5d 92 ea 3d c7 71 eb bd eb 3a 0b bd
       0.0075835963 0.11453698 -0.11496311 -0.033991735
000230 ee d5 41 bd 47 ba a7 bd 92 f4 de bc 23 9e f1 bc
       -0.04732316 -0.081898265 -0.02721623 -0.02949435
000240 e6 5e d3 bd fe 46 fc 3c 92 9f 39 bd bc 95 6c 3d
       -0.10320835 0.03079557 -0.045318194 0.057759985
000250 df b2 e0 bd 14 6b 7b 3d c0 57 a3 3d 99 9f 51 bb
       -0.10971617 0.061381415 0.07975721 -0.0031985997
000260 a4 11 84 3d c4 62 9f bd 0d be 18 3d 5c 9d 02 bd
       0.06448677 -0.0778251 0.03729062 -0.03188835
000270 4a bd f5 3b 57 ed 14 3d 20 d2 f5 3c 42 05 80 3c
       0.0074993717 0.036359157 0.030007422 0.015627507
000280 d8 5e 85 bd 1e 04 c9 3d 8b 4c 98 3d 5a 07 f9 bc
       -0.06512231 0.098152384 0.074364744 -0.030399013
000290 cb 74 3e 3c 27 27 bc 3d 1e eb bf bd dd 25 59 3d
       0.011624525 0.09187155 -0.09371017 0.053014625
0002a0 5d 8c ba 3d e9 09 e3 3d a5 07 b1 3d 9c 6c 5c bb
       0.091088034 0.110858746 0.08644036 -0.0033634072
0002b0 75 d6 3b 3d e5 6f b6 3d 96 9a 44 3a 8f ea 01 bd
       0.04585882 0.08908061 0.0007499842 -0.031717833
0002c0 2b 31 c6 3d b5 47 75 bd 33 7f 6e 3d e0 71 8b 3d
       0.09677347 -0.05988284 0.058226775 0.06808829
0002d0 81 20 a6 3c b2 44 fa bc 66 aa a7 3d 78 86 7b 3d
       0.020279171 -0.030550335 0.08186798 0.061407536
0002e0 9d ff d4 bd 85 01 df 3d 6a 12 4e 3d 41 d5 ac bd
       -0.10400317 0.10888962 0.05031053 -0.084391125
0002f0 3a 36 e8 3d 86 66 29 3d dc 42 b0 3c bf b2 9a bd
       0.11338468 0.04135754 0.021516256 -0.07553624
000300 03 6d 5e bd c4 7e 8a 3d 1e 7f 05 bd 73 2c 58 bc
       -0.05430318 0.0676246 -0.03259193 -0.013194191
000310 01 b2 28 3d 3f fe ff 3c a3 02 b9 bb ec 24 fb 3c
       0.041185383 0.031249164 -0.0056460663 0.030657254
000320 52 82 88 3c df ec 96 bc ea 5c a4 bd dd f7 b0 bd
       0.016663704 -0.018423496 -0.080255345 -0.08641026
000330 4c 1d 15 3d d2 02 31 bd 7f 49 e5 3d ac 9e ba bd
       0.036404893 -0.04321558 0.11195659 -0.091122955
000340 9f 1a ff 3c 7f 7a c2 bd 9b 53 0a 3d 2a 0f 01 3d
       0.031140624 -0.094960205 0.03377114 0.031508602
000350 4c 22 d5 3d 62 0f d8 3d 93 1a 15 bd a0 ad 87 3d
       0.10406932 0.10549809 -0.036402296 0.06624913
000360 5a 15 dc 3d 19 ef 03 bd 7c f1 29 3d 13 3c ca bc
       0.1074626 -0.032210443 0.041490063 -0.024686849
000370 7f 21 a5 3d 23 cf 89 3d f2 a8 82 3d 89 d2 7c 3d
       0.080630295 0.06728961 0.0637988 0.06172422
000380 61 6f 96 bd ed e5 1d 3d ad 12 83 bd 13 dc a4 bb
       -0.073454626 0.038549352 -0.064000465 -0.0050311177
000390 29 cc e3 bd 7e 98 c3 bd ee e8 f6 bc f2 94 6b 3d
       -0.11122925 -0.0955057 -0.030140366 0.057515092
0003a0 74 3e 0b bd 6c 60 aa bc e4 35 c2 bc f8 61 d7 bb
       -0.033995107 -0.02079793 -0.023707338 -0.006572958
0003b0 fe a2 6a bd ae 17 bc 3d 8c 9a bf 3d 48 e5 4e 3d
       -0.057284348 0.09184204 0.09355649 0.05051163
0003c0 c0 65 51 3d de 1c e3 bb 45 d2 af 3d 39 10 c0 bd
       0.051122427 -0.0069309315 0.085850276 -0.09378094
0003d0 e9 88 73 3c 08 91 1d 3d f4 ca af 3d 90 4e 90 bc
       0.014864185 0.03846839 0.08583632 -0.017615587
0003e0 e9 94 57 bd 60 01 c2 3d 83 40 77 3c 59 dc 4d bd
       -0.052632246 0.094729185 0.015091064 -0.050258968
0003f0 ea 5b 02 3d f3 18 aa bd 7b a1 bb 3c 45 92 96 3d
       0.031825937 -0.0830554 0.022904148 0.073521174

conv1.bias f4 [6]
000000 c5 ce 03 bd d9 d7 49 bd 36 b0 56 bd 77 49 65 3d
       -0.032179613 -0.049278114 -0.05241414 0.055978265
000010 65 79 85 3c 07 fd 9e 3c
       0.016293237 0.019407762

conv2.weight f4 [16, 6, 5, 5]
000000 5c ba 19 bd 52 5f 2b 3c ac 6f 49 bd 79 e4 97 3d
       -0.03753124 0.010459738 -0.049178764 0.074166246
000010 91 1e 78 bd 59 a3 33 3d 0d 91 9f 3d 88 9a de 3c
       -0.060576025 0.043856952 0.07791338 0.027173296
000020 d5 1d 56 bd 59 f5 18 bd 8a 49 9e bc e9 73 34 bd
       -0.052274544 -0.037343357 -0.019322176 -0.044055853
000030 21 7c 47 bd 69 96 94 3d d9 d9 9e 3d 56 39 77 3d
       -0.048702363 0.07255251 0.07756395 0.060357414
000040 d9 43 3f bd e3 60 96 3d 84 4c c6 3c d0 18 cb 3b
       -0.046695564 0.073426984 0.024206407 0.0061980262
000050 7d 05 36 3d f3 b2 9d 3d af f3 5b 3d c2 81 dc 3c
       0.044438828 0.077001475 0.05369919 0.026917342
000060 79 16 0b bd 79 87 64 3d 75 d3 a9 3c e1 4a 6d bd
       -0.03395698 0.05579326 0.020730713 -0.05793274
000070 fa d7 57 bd 5a cf 1d 3d 0d ef 8b bd ed c5 fd 3c
       -0.052696206 0.038527824 -0.06832705 0.030978167
000080 ed 69 05 bd 00 47 8e 3d dc 63 1d 3d 82 23 5f bd
       -0.03257172 0.06947136 0.03842531 -0.054477222
000090 6f d0 7e 3d 76 35 1a bd 40 ac 44 3d 52 1e 23 ba
       0.062210497 -0.03764864 0.048015833 -0.00062224746
0000a0 6e 14 34 bd 82 c8 96 bd c6 9c 40 3d 5e e3 79 bd
       -0.043964796 -0.073624626 0.04702451 -0.06100785
0000b0 6d b9 f3 bc a0 97 2d bd 89 5d 06 bd ed e6 ea bc
       -0.029751504 -0.04238093 -0.032804046 -0.028674567
0000c0 ab 5a a5 bc 42 2a 87 bd ad 7b 1a 3d 38 fd e1 3c
       -0.020184835 -0.06599857 0.037715603 0.027586564
0000d0 a0 73 49 3d 08 8d 75 bd 84 94 8f 3d 8d c5 a2 3d
       0.049182534 -0.05994895 0.07010749 0.07947836
0000e0 9c 1d 54 bc e0 24 f7 3c e4 ef 40 3d 0a af 83 bd
       -0.012946513 0.03016895 0.047103778 -0.064298704
0000f0 c1 93 db bc 86 f1 84 bd aa 0b 1b 3d 34 9a 96 bd
       -0.026803853 -0.064913794 0.03785292 -0.07353631
000100 e8 36 d1 bc 5c 38 bb 3c b8 43 69 3d 12 59 a5 bc
       -0.025538877 0.022854023 0.056949347 -0.020184074
000110 32 27 9a 3d 76 a0 78 3d 99 fe 0e bc 77 52 4e 3c
       0.07527007 0.060699902 -0.008727693 0.012592903
000120 00 81 d0 bc 95 d7 15 3d 72 cc 99 bd 06 79 6f bd
       -0.025452137 0.03658255 -0.07509698 -0.058465026
000130 28 00 89 3d 4d f8 b4 3c 26 2f fb 3b bf ae 75 3d
       0.06689483 0.022091055 0.0076655326 0.059981104
000140 db 55 da 3c 93 a0 74 bb d8 1a 3e bd 84 c3 02 bd
       0.026652267 -0.0037327155 -0.04641232 -0.03192474
000150 f8 9b 0c bd 57 f8 95 bd 38 30 03 bd e7 fd 29 3d
       -0.03432843 -0.07322758 -0.032028407 0.041501906
000160 c7 c1 f6 bc 83 e8 84 3d 17 e5 a0 bd 31 6c 8e bd
       -0.030121697 0.064896606 -0.078561954 -0.069542296
000170 16 9f 65 bd f4 b9 61 bd 63 a8 49 bd 6d 76 43 3c
       -0.05605992 -0.05510898 -0.04923285 0.01193009
000180 1e 59 a9 3c f5 17 93 3d 7b 24 40 bd f3 47 fa bc
       0.020672377 0.07182304 -0.04690979 -0.030551886
000190 18 20 89 3d cf 0c 29 3d b7 89 a2 3c 3c 7a 85 bd
       0.066955745 0.04127198 0.019841058 -0.06517455
0001a0 a2 ac 21 3d 5f ec b6 3c da 88 25 bc a1 3d c2 3c
       0.039471276 0.022329507 -0.010103429 0.023711028
0001b0 d1 9c 11 3c 5a 93 8f bd 75 40 44 3c b7 86 0e bd
       0.008887486 -0.07010527 0.011978258 -0.034796443
0001c0 72 0c 33 3b 0f 78 a2 3d bd be 3a bd 2d 22 83 bd
       0.002732065 0.079330556 -0.04559206 -0.06403003
0001d0 b4 a0 98 bc 46 a9 82 bd b7 5d 93 bd 45 1f 01 bd
       -0.018631317 -0.063799426 -0.07195609 -0.03152396
0001e0 e1 19 91 3c 6c d0 f9 3c 04 e2 31 bc 9f c7 31 3d
       0.017712535 0.030494891 -0.010857109 0.043403264
0001f0 2f f1 63 3c ed a8 5e bd 95 cd 68 3d 22 ad 88 3d
       0.013912483 -0.05436032 0.056836683 0.066736475
000200 b7 0e 48 3d ba 2e a4 bd e4 82 8d bd 4b db 68 3d
       0.04884216 -0.08016725 -0.06909731 0.05684976
000210 41 70 93 3d 33 39 19 3d 30 f5 71 bd 09 bd d4 3c
       0.07199145 0.037408065 -0.05907172 0.025969045
000220 57 f4 2f 3c 24 f4 91 3c 50 0e 8c bc 4e 22 c2 3b
       0.0107394075 0.01781661 -0.017096668 0.0059244996
000230 28 1a 8f 3d d9 78 71 bd 55 fa a0 3d d2 77 68 bd
       0.06987411 -0.05895314 0.07860247 -0.056754895
000240 e2 90 9a bb 01 fb 59 bb bf 56 9d 3c dc cf 21 bd
       -0.0047169784 -0.0033261182 0.019206403 -0.03950487
000250 be ac 09 3d bc ef a2 3c 08 11 61 bb a1 30 1b bd
       0.033612005 0.019889705 -0.0034342427 -0.037888173
000260 5f 96 3a 3c 94 85 76 3d 00 aa 8d 3d ee 51 9a bd
       0.01138839 0.060185984 0.069171906 -0.07535158
000270 aa 31 a0 bc 5a e2 72 3d b4 93 d4 bc eb 71 4e 3d
       -0.019554932 0.059297897 -0.025949337 0.05040161
000280 19 eb 81 bd aa 3a 3e bc d4 40 98 bd a6 7e 5e 3c
       -0.063436694 -0.011610666 -0.0743424 0.01358
000290 b4 6b 90 bd fb 34 9a 3d b8 e2 72 3c d1 22 e5 3c
       -0.07051793 0.075296365 0.014824562 0.027970703
0002a0 c7 cb 72 3d 24 15 3c bd ea c7 13 3d a6 48 92 bd
       0.05927637 -0.0459186 0.036079325 -0.07142763
0002b0 45 2e 88 3d 3e c6 5d bd d2 4b a9 3c 5f 75 35 bd
       0.0664945 -0.054144137 0.020666037 -0.044301387
0002c0 3b 3f 90 bd b3 05 65 bc 58 91 0b bc 9a d0 c2 3c
       -0.0704331 -0.01397841 -0.008518539 0.02378111
0002d0 e4 d8 ac 3c 9c 4b 13 3d d2 87 1f bd 65 61 8e bd
       0.021099515 0.03596078 -0.038947888 -0.0695217
0002e0 8f e5 28 bc 68 52 8b 3c b1 8a a2 bc 68 5e 8f bc
       -0.010308637 0.017007068 -0.019841524 -0.017501071
0002f0 66 62 00 bc 3b c5 01 bc 82 ac 95 bd 5c 14 83 bd
       -0.00783596 -0.007920559 -0.07308294 -0.064003676
000300 9e eb 81 bc 97 2d 9c bb ac 1a 18 bd 9b fb 6a 3c
       -0.015859421 -0.004766177 -0.03713481 0.014342214
000310 90 f0 09 bd 4a 72 f2 bc a6 36 c7 3c 49 21 8e bb
       -0.033676684 -0.029595513 0.02431805 -0.004337464
000320 05 fd b5 bc 0e dd cb 3c 17 c2 63 bc 79 23 9b 3c
       -0.022215376 0.02488568 -0.013901255 0.018937813
000330 0a 76 62 3d 22 1b 98 3d 1a 02 9a 3d a3 99 a4 3d
       0.055288352 0.0742705 0.07519932 0.080371164
000340 d2 4d 19 3c e2 7d 0f bd ca bf 8b bd 46 53 a1 bd
       0.009356933 -0.03503216 -0.0682369 -0.07877211
000350 d9 35 94 bd 7e 63 83 3c 50 a8 d0 bc b7 45 d6 bc
       -0.07236833 0.016038653 -0.025470883 -0.02615629
000360 c6 de ae bc 0a 8a 93 bc d4 a5 72 bd 14 46 01 bd
       -0.021346461 -0.018010158 -0.059240177 -0.031560972
000370 53 a9 d6 bc cc e1 48 bd d6 36 93 bc 1e 78 1f bd
       -0.026203787 -0.04904346 -0.017970484 -0.038932912
000380 c8 4b 43 3d 08 3f 87 bd 88 6e 6c 3b c6 82 0e 3c
       0.047679693 -0.06603819 0.0036076624 0.008698171
000390 fc ca bb 3c 8d 65 34 bd c5 b4 9b 3c 9d c2 a0 3d
       0.022923939 -0.04404216 0.019007096 0.078496195
0003a0 fb 04 c8 3c f7 98 25 3d 09 3b 86 3d 75 03 35 3c
       0.024416437 0.04042908 0.06554229 0.0110481875
0003b0 a0 d9 62 bd 2b ad 68 3c 55 74 90 bd 87 ce 8d bd
       -0.055383325 0.014201443 -0.070534386 -0.069241576
0003c0 37 bc 92 bd f3 e5 c5 bc 11 18 8a bd b8 d4 25 bd
       -0.071648054 -0.0241575 -0.067428716 -0.040486068
0003d0 f2 39 88 3d e7 e3 76 3d 6c d1 89 3d 47 43 93 bd
       0.06651677 0.06027594 0.06729397 -0.071905665
0003e0 84 51 59 3d 8b 1c cd bc 75 2c 59 bd df cc 8f bd
       0.053056255 -0.025038024 -0.053020913 -0.07021498
0003f0 11 88 06 bd 44 76 88 bc 01 83 2d bd 58 74 35 3d
       -0.032844607 -0.016657956 -0.042361263 0.044300407

conv2.bias f4 [16]
000000 b6 a8 25 bd 50 4d 79 3d da 5c c8 bc 78 ee 00 3c
       -0.0404441 0.060864747 -0.024458338 0.007869355
000010 2b 44 86 bc 6f f5 73 bd e2 37 90 bd 4f 57 9c 3d
       -0.016389927 -0.059560236 -0.07041909 0.0763384
000020 cd c5 9f bd b6 a3 85 bd bf 04 86 bd 89 03 78 bb
       -0.078013994 -0.06525366 -0.06543874 -0.0037843904
000030 47 9d a7 3d 3f b3 2c 3d e1 94 1d bd ce 33 3b bd
       0.08184295 0.04216313 -0.03847206 -0.0457037

fc1.weight f4 [120, 400]
000000 d8 cf 2f bc 68 11 13 bc 92 5c df 3c 59 3b 34 3d
       -0.010730706 -0.008976318 0.02726582 0.04400191
000010 5d b2 30 bd dd 0b 14 bd 1e 36 c8 3c a0 3e 8b ba
       -0.04313885 -0.036144126 0.024439868 -0.0010623522
000020 0c 91 1b 3c c6 ba f4 3c 1b 59 1a bd d4 5d 3a 3c
       0.009495031 0.029874217 -0.037682634 0.011374909
000030 e4 cb 84 bc ad c9 ef bc b5 24 33 bd 60 95 2c bc
       -0.016210504 -0.029270971 -0.04373618 -0.010533661
000040 53 11 2c 3d 3e 27 f6 3c 74 ba 41 3c 03 d1 f1 bc
       0.04200871 0.030048009 0.011824239 -0.02951861
000050 02 49 ab 3c e2 b7 26 bd 1a bb 8a bc 4b 30 08 3d
       0.020908836 -0.040702708 -0.01693492 0.03324918
000060 b5 0d 03 bd 60 20 fb ba b4 81 41 bc 9c 0c 03 bd
       -0.031995494 -0.0019159429 -0.011810709 -0.031994447
000070 6c 1e 01 3c 90 1d 1c bd 77 2c 32 3d 51 91 47 3d
       0.007880788 -0.03811413 0.043499436 0.04872257
000080 3e a3 07 bd 24 7d 55 3c 4e 88 d0 3c 2a 3d fe bc
       -0.033114664 0.013030324 0.02545562 -0.031035025
000090 d8 e0 d3 bb 62 7a a6 3c e7 d0 d9 bc 5a 57 fe bc
       -0.0064660124 0.020322029 -0.02658887 -0.031047512
0000a0 ad b7 10 bd ec 18 5e bc 03 53 3d bd 7e 2a 08 bd
       -0.035331417 -0.0135557465 -0.046221744 -0.03324365
0000b0 73 0a 35 bd 45 c9 3f 3d aa 33 fd bc a0 d2 c6 ba
       -0.04419942 0.046822805 -0.030908424 -0.0015168972
0000c0 d0 e8 de bb 70 f1 8e 3b 8e 6a 97 3c 1a a6 f5 3c
       -0.0068026558 0.0043622777 0.018483426 0.02998643
0000d0 4c 7c 13 3c a0 2e 50 bb e6 43 aa 3c d0 b4 b5 bc
       0.009001803 -0.0031766072 0.02078433 -0.022180945
0000e0 cc c1 78 bc a2 8d c7 3c 7a 3e 87 bc 80 7f 38 bd
       -0.0151829235 0.024359528 -0.016509283 -0.04504347
0000f0 b1 aa 33 3d 52 f5 2f bd 00 d0 9c 37 b1 29 0f 3d
       0.043863956 -0.042958565 1.8693507e-05 0.03495187
000100 0d 98 45 bd ea 40 9c bc 9d 0d 3a 3d e6 d5 fb 3c
       -0.04824071 -0.019073922 0.04542314 0.030741643
000110 50 d8 a0 bb b8 18 27 bd d0 62 e0 bb c0 8f 9c 3b
       -0.004908599 -0.040795058 -0.006847717 0.0047778785
000120 5a d5 f1 bc 00 eb bd bb 93 8b 3e bd 60 98 52 3b
       -0.02952068 -0.0057958364 -0.046519827 0.003213428
000130 10 23 23 bd e2 b8 ec 3c c9 c5 46 3d b3 b0 e3 bc
       -0.03982836 0.028896753 0.048528466 -0.027794218
000140 27 26 b1 bc c0 a4 54 ba b1 c6 42 3d 9b 8a 35 bd
       -0.021624638 -0.0008111708 0.04755277 -0.044321638
000150 ca c5 b7 bc 49 2f 0d 3d 08 11 1b bc 0d 72 0d 3d
       -0.02243318 0.034468923 -0.00946451 0.034532595
000160 60 11 3e 3b d8 0c 30 bd fd a7 9a bc 8c 5a 08 bc
       0.0029002056 -0.042981 -0.018878931 -0.008322369
000170 d6 1b f2 3c 2c 44 22 bc 0f 35 23 3d 00 ac 90 bc
       0.029554289 -0.009903949 0.039845522 -0.017660141
000180 18 8b 93 bb b1 55 44 3d 67 51 fc bc e4 6f 72 3c
       -0.0045026653 0.047933284 -0.030800534 0.014797185
000190 14 72 00 3c 70 07 b7 3b 14 31 70 bc 02 41 d5 3c
       0.007839698 0.0055856034 -0.014660139 0.026031975
0001a0 c9 31 15 3d 47 6f c4 bc 0e e1 b8 3c 3b bb 1b 3d
       0.036424432 -0.023978842 0.022568252 0.038020354
0001b0 30 59 a8 3b 04 b9 8d bc f7 c8 ef bc 38 91 70 bc
       0.005137585 -0.017300136 -0.029270632 -0.01468306
0001c0 fa c0 df bc a3 b7 fa bc 82 4a 81 3c 58 5e 27 bc
       -0.027313698 -0.030605143 0.015782598 -0.010215364
0001d0 28 3d 07 3c 2f 9e 1e 3d 69 0a 0e 3d aa e9 99 bc
       0.008254327 0.038725074 0.034677897 -0.018788178
0001e0 f7 18 e9 bc da 6c ed 3c e2 9f 04 bd 7d b5 49 bd
       -0.028454287 0.028982569 -0.03237904 -0.049245346
0001f0 da 4a e8 3c fa b8 d2 3c 4d 1e 3a bd 3a 16 9b 3c
       0.028356005 0.02572297 -0.045439053 0.018931497
000200 13 60 c8 bc 87 cb a3 bc 70 43 45 bd 98 12 39 bc
       -0.024459874 -0.01999451 -0.048160017 -0.011295937
000210 fd 45 dd bc b0 6c 19 3b 78 ce 37 3c 5c 52 01 bd
       -0.027010912 0.002341073 0.01121866 -0.031572685
000220 fd 3b 1f bd 50 fd ce bb 21 da 1c 3d 35 97 34 3d
       -0.03887557 -0.0063168183 0.03829396 0.044089515
000230 f2 6d 8e 3c 80 79 50 ba 61 d3 22 3d 18 f9 5a bc
       0.01738641 -0.0007952675 0.039752368 -0.013365053
000240 8c 13 0b bc f0 87 49 bd 6a 71 82 bc 6b 74 05 3d
       -0.008488547 -0.049201906 -0.01592322 0.032581728
000250 18 a6 8c bb 97 63 05 3d 00 06 71 3a a0 23 20 bb
       -0.004292261 0.03256568 0.00091943145 -0.0024435297
000260 e6 f1 ee 3c e5 5a 2f 3d a7 75 be bc 1a ea e3 bc
       0.02916808 0.042811293 -0.02324946 -0.02782159
000270 66 e9 8c bc 12 44 a2 3c 85 52 30 3d f2 1d 28 bd
       -0.017201137 0.01980785 0.043047447 -0.041044183
000280 cd 0c fd bc cd ab 4a bd 38 74 0c 3c a2 41 2e bd
       -0.030889893 -0.04948025 0.008572631 -0.04254306
000290 00 c3 70 b9 d3 aa 4a bd 58 81 e0 3b 36 83 f4 3c
       -0.00022960827 -0.049479317 0.0068513565 0.029847723
0002a0 5a 1e a9 bc 20 57 50 3b 93 b5 af bc 00 b2 63 3b
       -0.020644356 0.0031790212 -0.021448886 0.0034743547
0002b0 30 07 75 3b 36 42 81 bc ff fd 33 3d b7 ad ed bc
       0.0037388317 -0.015778642 0.0439434 -0.029013498
0002c0 88 ea 61 bc 30 a0 86 bb 52 a5 97 3c 43 bf cb bc
       -0.013788827 -0.0041084513 0.018511448 -0.024871474
0002d0 90 4c bd bb ed 8c 33 3d c5 10 06 3d 75 32 37 3d
       -0.005776949 0.04383557 0.032730836 0.044725854
0002e0 ad 13 03 bd 80 1a 17 bd bc 04 64 3c 4d bb fd bc
       -0.032001186 -0.036890507 0.013917144 -0.030973101
0002f0 0a 82 34 bd 37 54 b6 bc 9b f4 02 3d b6 55 b1 3c
       -0.044069327 -0.022256954 0.031971555 0.021647315
000300 40 1d 61 bc 98 c5 e5 bb bb a4 31 3d 40 f2 10 bd
       -0.013739884 -0.0070120804 0.04336999 -0.035387278
000310 bb 57 44 3d a8 ca f0 3b 45 0c 3e bd 8a 66 ac 3c
       0.04793523 0.0073483773 -0.04639842 0.021044988
000320 2e 50 c8 3c 4f 30 36 3d 3c 52 8b bc 51 75 11 3d
       0.024452295 0.044479664 -0.017006986 0.035512272
000330 06 e6 18 bd a7 c5 b0 bc 83 d7 fa bc 44 22 7a 3c
       -0.037328742 -0.021578623 -0.030620342 0.015266959
000340 7d 81 ff bc b8 69 71 bc e9 27 37 3d f2 11 da 3c
       -0.031189675 -0.014734678 0.044715796 0.026619885
000350 53 dd 2c bd 4b a4 46 3d f1 55 37 3d 6d 4d ff bc
       -0.04220326 0.048496526 0.044759694 -0.03116485
000360 a6 48 8f bc f9 8b 1c 3d 2c 22 17 3c 2a fe 99 bc
       -0.017490696 0.038219426 0.009224456 -0.018797953
000370 be 47 e3 3c 2c fa 40 bc 93 d8 e5 bc a0 aa fe 3a
       0.02774417 -0.011778396 -0.028057372 0.0019429512
000380 e9 0c 10 3d 50 19 c5 bb 0d 13 ca bc 20 d6 34 bc
       0.035168562 -0.0060149804 -0.024667287 -0.0110373795
000390 e0 5d 01 3b 82 a9 95 3c 46 77 ed 3c 82 01 a1 3c
       0.0019739792 0.018269304 0.028987538 0.01965404
0003a0 46 48 ed 3c 42 88 8e 3c ad a6 e5 bc 21 01 11 3d
       0.028965127 0.017398957 -0.028033579 0.035401467
0003b0 3d d4 1a 3d 4e 4f 12 bd 20 58 36 bd 56 58 18 bd
       0.037800062 -0.035720162 -0.044517636 -0.03719362
0003c0 2b 67 0e 3d e5 06 22 bd 55 3b 0f 3d 0a c8 a7 bc
       0.034766357 -0.039557356 0.034968693 -0.020481128
0003d0 57 f6 a8 bc b0 3f 56 3b c0 20 4a bc 80 ed ab bc
       -0.020625276 0.003269177 -0.01233691 -0.020987272
0003e0 10 81 23 bd 49 96 0b 3d 60 77 1f 3c 26 24 dd 3c
       -0.039918005 0.03407887 0.009733051 0.026994776
0003f0 d0 d5 67 3b 58 af 0e bc e7 17 ab bc 37 89 ca bc
       0.0035375245 -0.008708797 -0.020885421 -0.024723632

fc1.bias f4 [120]
000000 2f 4c 44 bd ee 14 0d 3c eb b8 d6 3c 0e 59 90 3c
       -0.047924217 0.008610947 0.026211223 0.01762059
000010 50 ba 1e bc 06 08 2a bd b7 36 30 bd 44 74 21 3d
       -0.009687975 -0.041511558 -0.04302093 0.03941752
000020 0a f2 01 bd 65 dd cf bb 87 ec 00 3d cb 4d c6 bb
       -0.031724967 -0.006343531 0.03147557 -0.006051754
000030 3c 16 25 bc 2b 0e 18 bd f3 dc 7c b9 6b 91 21 bd
       -0.010076102 -0.037122887 -0.00024114903 -0.039445322
000040 3d 76 36 bc 41 15 f8 3b 46 08 63 bc 71 3d 14 3d
       -0.011136589 0.007570893 -0.013856953 0.036191408
000050 a8 bd 0e 3d ee 84 cb 3c f9 e4 aa 3c e8 9a 12 bd
       0.03484884 0.02484366 0.020861136 -0.03579226
000060 b3 b9 41 3d a5 be 23 3d 69 40 1b 3d 15 d6 0f 3c
       0.047296237 0.039976735 0.037903223 0.0087790685
000070 1a 65 a0 bc fb 52 36 bd 71 08 6e 3c 2d b9 d1 3c
       -0.019579459 -0.04451273 0.01452838 0.025600994
000080 c9 5b a5 3c d6 2e 2c 3c 61 58 ab bc d6 40 f2 3c
       0.020185368 0.010509213 -0.020916166 0.029571932
000090 74 56 39 3c 6a f1 29 bc 5b 96 f3 3c 05 dc 31 bd
       0.011312116 -0.010372499 0.029734781 -0.043422718
0000a0 3f 79 4e 3c 98 7d 0a bc cf 5d c8 3c 80 fc 3c 3a
       0.0126021495 -0.008452795 0.024458794 0.00072092563
0000b0 4f 74 06 3d b7 97 c8 bc 30 aa 07 3d 86 db e2 3b
       0.032825764 -0.024486406 0.033121288 0.006923142
0000c0 27 9b b3 3c c2 51 42 3d 60 53 88 3a 74 c7 27 3d
       0.021924568 0.04744125 0.0010400824 0.040961698
0000d0 8e 9a 90 bc c5 5c 89 3c 60 58 da bc 7e 8c f4 bc
       -0.017651822 0.016767869 -0.026653469 -0.029852148
0000e0 3a 37 90 3c ad 4d f5 3a 4f 7b 40 3d 4a b4 1f 3c
       0.01760446 0.0018715166 0.046992596 0.009747574
0000f0 c8 4d 70 bc 6e 97 27 3c a3 11 0b 3d cb f6 d0 bc
       -0.014666982 0.010228975 0.033952367 -0.025508305
000100 e0 9d 64 bc a9 c5 9d bc 3c c6 40 3d 18 69 06 3c
       -0.013953656 -0.01925929 0.04706405 0.008203767
000110 00 56 05 3d f0 2e f8 bb 57 1d a0 bc 18 75 06 3d
       0.03255272 -0.0075739548 -0.01954524 0.032826513
000120 c2 f6 30 3d f3 f6 19 bd d6 3b cf 3b 27 af 19 3d
       0.043204077 -0.037589025 0.0063242717 0.037520554
000130 59 d2 48 bd be 04 78 bc 15 e5 33 bd d5 c8 25 bd
       -0.04902873 -0.015137849 -0.04391964 -0.04047473
000140 d4 27 74 3c e5 7e 08 3d bf eb 05 3d 5d c1 42 bd
       0.014902074 0.03332414 0.032695528 -0.047547687
000150 82 6f 9c bc 4d 31 23 3d 8a c4 e7 3c 90 1a a0 bb
       -0.01909614 0.03984194 0.02829196 -0.004885979
000160 71 2c ee 3c 46 16 20 39 86 86 0f 3d da c1 e2 3c
       0.029073926 0.00015267087 0.0350404 0.027680326
000170 a5 f2 44 bd 2c ea 3b 3c 9b 1f 7d bc aa 2b 36 3d
       -0.048082966 0.011469405 -0.01544943 0.044475235
000180 ae 8e 2d 3c 84 1b 4c 3d c8 7d 5d 3b 7e 0a 31 3d
       0.0105930995 0.04983093 0.0033796895 0.043222897
000190 12 4e 4c bd c3 c6 7f bb 03 43 b4 ba 89 8e a9 3c
       -0.04987914 -0.0039028383 -0.0013752881 0.020697849
0001a0 3e 20 39 bd 7d 65 2b bd 05 48 1f 3d b6 1c 27 3d
       -0.045196764 -0.041844834 0.038887043 0.040798865
0001b0 24 98 50 bc d8 52 f9 3b 49 b5 15 bd 27 19 52 3d
       -0.012731586 0.0076087527 -0.03654984 0.05129352
0001c0 45 45 46 bd e2 ba fe 3b 2a 2e 1b 3d 40 38 d5 3c
       -0.048405904 0.007773743 0.037885822 0.026027799
0001d0 dd 0d ef 3c 8e c1 f8 3c 65 25 28 bd e4 98 fe bc
       0.029181415 0.030365732 -0.041051287 -0.031078763

fc2.weight f4 [84, 120]
000000 39 fe 29 bd 48 ce 6a 3c f2 66 a5 3d 98 35 09 bc
       -0.04150221 0.014331408 0.08076276 -0.008374594
000010 00 37 81 bc 30 a0 36 3c 0b 1e 09 bd 98 05 43 3d
       -0.015773296 0.01114659 -0.033475917 0.047612756
000020 dc 45 89 bd f0 2c 43 bc 44 04 47 3d be 23 23 bd
       -0.06702778 -0.011912569 0.048588052 -0.03982901
000030 92 8d 93 bd 66 f3 5f bd 71 4e 0a bd e4 72 85 3d
       -0.07204737 -0.054675482 -0.033766214 0.06516054
000040 18 68 7b bd 90 c4 ae 3c d2 11 a7 3d 45 36 62 bd
       -0.06137857 0.021333963 0.08157696 -0.055227537
000050 74 76 e6 3c 66 91 70 bd f0 f1 ea bc c8 64 94 3d
       0.028132655 -0.058732413 -0.028679818 0.07245785
000060 ba 08 05 3d 5e e5 48 bd 18 9d 88 3d 00 c2 aa b9
       0.032479025 -0.049046867 0.06670588 -0.00032569468
000070 b2 ac b6 3d e8 1a b4 bd 8c ae 76 3d a8 9e 79 3c
       0.08919658 -0.087941945 0.060225055 0.0152355805
000080 30 40 7d 3d 60 f1 14 bb 58 d4 92 bd 82 66 98 3d
       0.061828792 -0.0022726879 -0.071694076 0.07441427
000090 da 93 ab bd e0 de 2e bc 68 9a 91 3d 8c 82 55 bd
       -0.0837781 -0.010673255 0.07109529 -0.052126452
0000a0 28 6e d0 bc 40 da 23 3c fc cc b2 bc 94 5b b5 3d
       -0.025443152 0.010000765 -0.02182626 0.08855358
0000b0 e6 8b 95 bd a7 be 3b bd 0c 84 8e 3d 52 53 8e 3d
       -0.07302074 -0.045836117 0.0695878 0.06949486
0000c0 02 89 84 bd 1d 64 b7 bd 0e fa ad bd 5a b7 9e 3d
       -0.06471445 -0.08954642 -0.0849496 0.07749815
0000d0 64 23 f6 3c 88 a1 27 3d e8 3b 99 bd b4 c2 41 3d
       0.030046172 0.040925533 -0.07482129 0.047304824
0000e0 5a ef b8 bd a8 79 46 3c 4e 4f 17 bd f5 c5 b6 bd
       -0.09030028 0.012113966 -0.036940865 -0.08924476
0000f0 48 81 39 bd b8 73 67 3c d0 4a 88 3d 9e 97 a0 bd
       -0.045289308 0.014126711 0.06654894 -0.07841419
000100 d1 99 30 bd 5e f1 a1 3d a4 48 10 bd 7c 01 03 bd
       -0.04311544 0.07907365 -0.035225525 -0.031983837
000110 82 e2 90 bd 5e a0 9a 3d e6 44 92 bd 58 d4 61 bc
       -0.07074453 0.07550119 -0.071420476 -0.013783537
000120 34 64 36 3d 80 ef 2c 3d 00 a6 d2 bc 1c 63 87 3d
       0.044529155 0.042220592 -0.02571392 0.066107005
000130 f8 f6 ae 3d 40 50 ef ba ae 38 82 3d d0 fe a9 bb
       0.08543199 -0.0018258169 0.06358467 -0.0051878467
000140 1c fd a8 3c 80 35 b7 bd 5c 82 1f bd 50 2f a9 3c
       0.020628504 -0.08945751 -0.03894268 0.020652443
000150 34 0c 2b bd 7c 11 83 bd 80 45 44 bc 34 6d ba 3c
       -0.041759685 -0.06399819 -0.011979461 0.02275715
000160 20 7e 77 3c 82 f4 86 bd 78 69 b4 bc 54 88 8c bc
       0.015105754 -0.06589605 -0.022022948 -0.01715485
000170 ea 9f ac bd 28 49 a0 3d c5 9b ae bd 9a 76 88 bd
       -0.08428939 0.078264534 -0.085258044 -0.066632465
000180 00 e2 83 3a 21 83 72 bd 00 b8 9d ba 40 e0 44 3c
       0.001006186 -0.059207086 -0.0012032986 0.012016356
000190 a0 f9 1c 3d c4 6d 88 bd e0 32 fc bb 9f a4 ad bd
       0.038324 -0.06661561 -0.0076964945 -0.084786646
0001a0 c0 16 95 3c d4 1e b1 bc 00 6a fd 3c 45 94 ac bd
       0.018199325 -0.021621145 0.030934334 -0.08426718
0001b0 a9 35 b7 bd a8 55 97 3d 0a 9b 2d bd cc ec 47 3d
       -0.08945782 0.073893845 -0.042384185 0.04880981
0001c0 58 b5 2e 3c 98 fb e7 bc 24 71 49 3d 9e 20 71 bd
       0.010663353 -0.028318211 0.049180165 -0.058868997
0001d0 b0 25 ec bc 24 cd 14 3d 5a e4 a3 3d ed 79 57 bd
       -0.028826565 0.03632845 0.08002539 -0.05260651
0001e0 a8 fc 54 3d f8 a1 55 bc b8 ba 87 bc 2c be 60 3d
       0.051998764 -0.013039105 -0.016568527 0.054868862
0001f0 90 f9 9f bb 48 b8 4c 3c d8 c0 32 3c c0 76 dd ba
       -0.004882045 0.012495108 0.010910235 -0.0016896352
000200 8f 7a b4 bd a0 5d a4 bd 80 31 a1 3b 30 f4 ad 3b
       -0.08812439 -0.0802567 0.004919231 0.0053086504
000210 80 d1 48 bd 5c fd 98 3d 90 13 67 bd 3c 93 c7 bc
       -0.04902792 0.074701995 -0.05641514 -0.024362199
000220 cc 75 30 3d 4c 76 a5 3d 46 83 b0 3d 10 1d f7 3c
       0.04308109 0.08079204 0.086187884 0.030165225
000230 72 31 84 3d 44 59 67 3d 28 fb a2 3c 8c 14 a1 3d
       0.064547434 0.056481615 0.019895151 0.07865247
000240 fc 37 62 bd 91 9b 31 bd c0 8b 0e bc a0 b2 d7 3b
       -0.055229172 -0.04336125 -0.008700311 0.006582573
000250 28 c4 2a 3c dc 5c 59 3d 2a 82 9f bd 0a b1 87 3d
       0.010422744 0.053067073 -0.07788499 0.066255644
000260 a9 da 9d bd fb 39 4a bd f8 e6 af 3d 2e f3 0e bd
       -0.07707722 -0.0493717 0.08588976 -0.034899883
000270 01 4d 78 bd d5 96 18 bd 3e f8 a4 bd d8 d2 b4 bc
       -0.06062031 -0.03725322 -0.08055161 -0.022073194
000280 1b 8e 6b bd d4 8e 71 3d 80 87 9b ba a2 4b a5 3d
       -0.05750857 0.058974102 -0.0011865944 0.080710664
000290 fc 88 5a bd ae 67 3b bd 01 27 31 bd 7c 1e b8 3d
       -0.053353295 -0.045753174 -0.043250088 0.089901894
0002a0 50 48 a8 3c 38 5f 81 3d 58 56 5d bc 8c c1 d2 3c
       0.020542294 0.0631699 -0.0135093555 0.025727056
0002b0 93 6b 9c bd 48 f4 9f 3c f6 31 92 bd fc 79 15 bd
       -0.07637706 0.019525662 -0.071384355 -0.036493286
0002c0 44 e7 48 3d 28 7a 91 3d 6c 32 84 3d 70 75 e2 bc
       0.049048677 0.071033776 0.0645493 -0.02764389
0002d0 42 84 b4 bd 80 cd 39 ba f6 5a 81 bd 1e 4b 03 3d
       -0.08814289 -0.0007087812 -0.063161775 0.03205406
0002e0 1c 1e 7e 3d 5e bd 07 3d 1b ff 5c bd 04 db e5 bc
       0.062040433 0.03313958 -0.053954225 -0.028058536
0002f0 b0 f4 1a 3d 13 fb 37 bd 2c 2f 76 3d 80 53 ab 3c
       0.03783101 -0.044917177 0.06010358 0.02091384
000300 90 e3 c0 bb 3e 6b 63 bd 68 f2 7e bc 14 6a 72 3d
       -0.0058865026 -0.055522196 -0.015560724 0.059183195
000310 28 00 6a 3c ad dd 1a bd 50 49 43 3d 7d cd 9d bd
       0.014282264 -0.037809063 0.047677338 -0.077052094
000320 c8 87 a6 3d 50 6d ee 3c 60 0c 12 bc 18 84 3c bc
       0.08131367 0.029104859 -0.008914083 -0.011506103
000330 ab 75 22 bd 7c be 87 bc fc 1a 1a bd 90 d7 ea bb
       -0.039663 -0.016570322 -0.03762339 -0.0071668103
000340 b0 4c 2f bc 84 6b 4f 3d fb 0f 3c bd 9e 56 04 3d
       -0.010699436 0.050639644 -0.045913678 0.032309167
000350 70 66 f6 bb ce 38 b3 3d 36 f6 b5 bd 24 09 b1 3d
       -0.0075195357 0.08751069 -0.08884852 0.086443216
000360 36 79 94 bd 78 8e 4c 3c b9 20 ac bd 90 56 37 3d
       -0.07249682 0.012485139 -0.08404679 0.044760287
000370 00 2a ca 3b 2e 55 2f bd 4c 53 a5 3d 88 1e 41 3c
       0.0061695576 -0.042805843 0.08072528 0.011787064
000380 de e5 91 3d 64 4e a1 3d 92 9f 82 bd 00 39 30 bc
       0.07123922 0.0787628 -0.06378092 -0.010755777
000390 b0 ef 4e 3c 88 f5 86 3d a4 a3 69 3d c2 05 7f bd
       0.012630388 0.065898 0.057040825 -0.06226135
0003a0 c6 01 90 bd 36 f2 74 bd 98 76 2b 3d 52 a4 b7 bd
       -0.07031588 -0.059801303 0.041861147 -0.089668885
0003b0 a0 7f 9b 3b cc c3 92 bd fb 2d 8d bd 98 bf 50 3c
       0.0047454387 -0.071662515 -0.06893536 0.012740992
0003c0 5c 71 9d 3d f3 62 ba bd a3 f1 e7 bc cb 1f 83 3d
       0.07687637 -0.09100904 -0.028313464 0.064025484
0003d0 89 13 0f bd 77 71 6e 3c 10 3c a2 3c c7 ae 16 bd
       -0.03493074 0.014553419 0.01980403 -0.036787774
0003e0 dd 9c 14 39 3b e6 19 bd 81 9a a3 3d 07 9a 2e 3c
       0.00014172816 -0.03757308 0.07988454 0.01065684
0003f0 04 38 38 3c e3 86 17 bd 45 b5 70 bd 30 ee 37 bd
       0.011243824 -0.036993872 -0.058766622 -0.044904888

fc2.bias f4 [84]
000000 7b 00 3b bd f4 5d a2 bd ac a2 92 3c f9 ec 86 bc
       -0.045654755 -0.079280764 0.017899834 -0.01647042
000010 4a 7f 50 3d 4c fe 93 3d 92 ab 03 3d d4 b1 19 3d
       0.050902642 0.07226238 0.032146044 0.037523106
000020 3e ec 7c bd eb ac 59 bc 00 21 be 3b e5 3c a2 3d
       -0.061748736 -0.013285856 0.0058022738 0.07921771
000030 33 52 1a 3d cd b5 5e 3d b0 a1 6d 3c 8c b8 9b 3c
       0.037676048 0.054372597 0.014503881 0.019008897
000040 1b 34 0c 3d 58 c6 a6 3d 5e 96 5a bd 86 3f 7d bd
       0.03422938 0.081433 -0.053366058 -0.06182816
000050 46 4d 92 3c 51 8f b8 bd ec e6 68 bd 9b 8f 50 3d
       0.017859112 -0.090117104 -0.05686085 0.050918203
000060 ff e7 9c bd 9a 66 a1 bd d5 41 2c bd 97 53 ad bd
       -0.07661437 -0.07880898 -0.04205497 -0.08463209
000070 44 71 c7 3c 39 a1 1d 3c d0 1a 98 b9 f0 40 f1 3c
       0.024346001 0.009620958 -0.00029011676 0.02944991
000080 57 81 a6 3d eb a2 82 3a 6a 15 4b bd b1 cf 65 bd
       0.08130138 0.0009966766 -0.04958097 -0.056106273
000090 af 2f 00 bd 68 81 72 bd 7c c6 86 bd 21 0e 70 bb
       -0.031295475 -0.059205443 -0.06580827 -0.0036629515
0000a0 97 18 b1 bc 45 8a 0c bc bc a0 60 3d 98 51 c5 bc
       -0.02161817 -0.008577888 0.05484079 -0.024086758
0000b0 5a 5c 94 ba bf f2 86 3c 2b ac 97 3d aa f2 b5 bd
       -0.0011319027 0.016473172 0.07405885 -0.08884175
0000c0 1a 0d 68 3b 94 24 e9 bc d8 1b b1 3d b2 de fb 3c
       0.00354082 -0.028459825 0.08647889 0.030745838
0000d0 98 c0 34 3d 23 34 73 bc 08 0e c2 bc 52 2e 3c 3d
       0.044128984 -0.014843973 -0.023688331 0.045942612
0000e0 cc 51 45 3d 8e 87 68 3d a7 5f a2 3d f6 b1 b4 bd
       0.04817371 0.0567699 0.079284005 -0.08823006
0000f0 99 f6 95 bd 19 b9 b3 bd bc 97 93 bd 1f d4 31 bd
       -0.073224254 -0.08775539 -0.072066754 -0.043415185
000100 fe 40 0c 3d fa 17 a3 bd 61 6f be 3d 8c ad 67 3d
       0.03424167 -0.079635575 0.092985876 0.05656199
000110 f8 97 9d bd 75 08 78 bd 90 ea a6 3d ea bb a9 3d
       -0.07695001 -0.06055494 0.08150208 0.08287795
000120 07 80 56 bd 53 93 1e bd e5 46 07 bd 98 96 7e 3d
       -0.05236819 -0.038714718 -0.033026595 0.062155336
000130 11 18 a7 3d fb 7f ae bc a6 2f 12 bd ea e2 85 bd
       0.08158887 -0.02130126 -0.035689972 -0.06537421
000140 c5 3c b7 bd 3b bb af bd b7 4e 25 bc 37 f0 7a 3d
       -0.08947138 -0.08580633 -0.010089568 0.061264243

fc3.weight f4 [6, 84]
000000 a3 2d c0 3d 8e 06 1e 3d 7b 63 5e 3d 3a e8 d7 3d
       0.093837045 0.03858047 0.05429409 0.105423406
000010 85 e4 89 bd f7 19 73 3d 58 ea c0 bc 34 b1 86 3c
       -0.0673304 0.059350934 -0.023549244 0.016441919
000020 f2 b3 95 bd 6f 1a 0d 3d 92 40 8e bd 0a ea 0d bd
       -0.073097125 0.034449037 -0.069459096 -0.034647025
000030 62 1f 17 bd 01 af 8b 3d ff 77 0e bc 29 c1 e9 3c
       -0.036895163 0.06820489 -0.0086956015 0.028534489
000040 ac 9d 6a bc 30 8a a3 3c e6 fd e1 bc c0 63 af ba
       -0.0143198185 0.019963354 -0.027586889 -0.0013381168
000050 a7 21 4d bd 07 81 b9 bd 1e 38 01 3d 57 17 78 3d
       -0.05008092 -0.09057813 0.03154766 0.060569134
000060 d9 fc 43 bd ca 5e 1d bd b3 f8 e0 bc c2 a7 2f 3d
       -0.047848556 -0.038420476 -0.027462339 0.042884596
000070 45 cc d0 bc ba 22 cd bd d4 1f b0 3d 55 9f 9a bc
       -0.025488028 -0.10016389 0.08599821 -0.018874804
000080 15 e1 82 bd 9f 16 26 bd 74 0d 90 3c e5 ac 84 3d
       -0.06390587 -0.040548917 0.01758454 0.064782895
000090 e0 02 cd 3d 40 a4 1e 3c ab ab 83 bd 39 d2 65 bd
       0.10010314 0.009682715 -0.064292274 -0.056108687
0000a0 d8 ad 1e bd 3c a4 32 3d 27 8b 1a bd b4 4d 1f bd
       -0.03874001 0.043613657 -0.037730362 -0.038892463
0000b0 ab 63 f2 bc 6f 1d ad 3c e0 82 90 3d 50 07 c6 bd
       -0.029588541 0.0211322 0.070562124 -0.096693635
0000c0 ba d3 02 3d 8e 31 3e bd e2 cd ae bc 2e 09 c0 3d
       0.0319402 -0.046433978 -0.021338407 0.09376751
0000d0 a3 b2 3a bd 74 d4 5f 3c 69 3d a8 3d 17 ad 03 bd
       -0.045580518 0.013661493 0.08214838 -0.032147493
0000e0 22 95 0b bd 9c 71 26 bd 16 4d d3 bd c8 da 1d 3c
       -0.03407777 -0.04063569 -0.10317437 0.009634681
0000f0 47 45 c2 3d 60 cf 97 bc c4 52 b9 3c eb 9e 88 3d
       0.0948587 -0.018531501 0.022622474 0.06670936
000100 cf e1 b6 bb 00 53 05 3a 4c 09 87 3c 90 5d c3 3d
       -0.0055811177 0.00050859153 0.016483925 0.0953933
000110 41 3f db 3d d6 63 da 3b 9f 8f a4 bd 82 ad 0f bc
       0.10705424 0.0066647334 -0.08035206 -0.008769395
000120 43 df b0 3d 1c b9 b7 bd ff b1 29 bc 3c 86 7a bc
       0.08636334 -0.08970854 -0.010357379 -0.015290793
000130 d8 01 8d 3b 05 be 72 bd 6c fb 52 bd 5f c1 b5 3d
       0.0043031983 -0.059263248 -0.051509306 0.08874773
000140 f5 0b c2 3d 69 85 c8 3d 6d d4 50 3d 73 5c b8 3d
       0.09474937 0.09791071 0.050983835 0.09002008
000150 e5 f7 b7 3d 74 e9 92 3c c0 bf 92 3c 49 e6 ff 3a
       0.08982829 0.017933585 0.0179137 0.0019523586
000160 0a a1 89 bc c5 81 15 3d 68 67 5f bd 06 bc 3a bc
       -0.016800422 0.03650071 -0.054541975 -0.011397367
000170 86 df 75 3d f6 78 b0 bd 18 45 8c bd aa 53 80 bd
       0.06002762 -0.086168215 -0.06849116 -0.06265958
000180 a4 51 9d bd 86 6c d8 bd e8 4e 9b bd fb 05 8c bc
       -0.07681587 -0.10567574 -0.075834095 -0.017092695
000190 09 6b 9c 3c c5 be f9 3c 98 15 a0 bd 00 bc 32 bd
       0.019094007 0.030486474 -0.07816619 -0.043636322
0001a0 a5 7c 9c bd df 60 94 3d f5 24 d1 3d 2d f4 de bd
       -0.076409616 0.07245039 0.10212127 -0.108864166
0001b0 1e 23 2b bd d9 ee 98 3d 81 3e 92 bd e5 7c b9 3d
       -0.041781537 0.074674316 -0.07140828 0.09057025
0001c0 07 9d e6 3c 63 b4 d1 3d c6 06 7b bd 41 3d 9e bd
       0.028151048 0.10239484 -0.061285757 -0.07726527
0001d0 9e 15 8a 3d e2 38 c7 bc 21 ef bc 3d 48 1c 62 3d
       0.067424044 -0.024319116 0.09225298 0.055202752
0001e0 43 e9 3b 3d 6a 0e 1d bd 76 3e 27 bd f9 7a 2a 3d
       0.045876753 -0.038343824 -0.04083105 0.041621182
0001f0 fa 99 c9 bc 50 56 90 3d 7c f1 dc 3c 80 b3 78 bd
       -0.024609555 0.07047713 0.026970617 -0.06071806
000200 9a e0 17 bd 44 f6 2a 3d a8 74 cf bd 4c e7 e0 bc
       -0.03707943 0.041738763 -0.10129672 -0.027454041
000210 c2 51 c0 bd 36 d5 33 3d 46 13 e2 bd 11 4e dc bd
       -0.09390594 0.043904506 -0.11038832 -0.107570775
000220 66 da cf 3d 95 e3 6e bd 3d c6 af 3d 3d 78 2b bd
       0.10149078 -0.058322508 0.08582733 -0.041862715
000230 8c 92 09 3d 81 f4 21 3d 54 af 67 3d 62 48 4b 3d
       0.033587024 0.039539818 0.05656369 0.049629577
000240 19 5c 90 3d 47 b9 d3 3d 6c 54 96 bd 75 9a cd 3d
       0.07048816 0.10338073 -0.07340321 0.10039226
000250 3e d2 7a bd 7b f9 a1 3d b3 20 ab 3d dd a1 57 3d
       -0.06123566 0.07908913 0.08355846 0.0526446
000260 84 f9 8b bd 5f 0d 21 bb f6 92 bc 3d 0f 0b 9b 3d
       -0.06834701 -0.002457462 0.09207718 0.07570469
000270 2d 68 80 3d 49 f9 ac bd ee 62 56 3c 15 d1 81 bd
       0.0626987 -0.08445985 0.01308511 -0.06338707
000280 64 93 ad bd de a6 ae 3d db 28 ad 3d b7 6a 86 3d
       -0.08475378 0.08527921 0.08455058 0.06563323
000290 18 a9 8a bc 5a e4 1b 3d 9a 67 d8 3d a3 01 df b7
       -0.016926333 0.03805957 0.105666354 -2.6584434e-05
0002a0 44 25 d7 3c 8e 8a 77 3d f3 bf 73 bd b7 26 9d bd
       0.026262887 0.06043487 -0.05950923 -0.076734
0002b0 f4 a6 c7 bd 2c f2 96 bd f3 2d c3 3d 60 8c 52 3d
       -0.09748641 -0.07370409 0.095302485 0.051403403
0002c0 3f c1 9f bd 7d 50 4f 3c 20 b4 e2 bb a0 25 93 bc
       -0.07800531 0.012653467 -0.006918445 -0.017962277
0002d0 45 37 6a bc a3 c7 69 3d ba 05 54 3c dc 61 70 bd
       -0.014295404 0.057075154 0.012940818 -0.058687076
0002e0 22 8f c8 bd 80 35 b7 3d 11 02 80 3d 94 3f bc 3c
       -0.097929254 0.08945751 0.06250394 0.022979535
0002f0 f8 f2 c2 bd 96 19 d3 bd 64 a5 88 bd ad 95 63 bd
       -0.09518999 -0.103076145 -0.06672171 -0.055562664
000300 ec 8f a6 bd d5 5d b3 3d 79 69 b2 3a 58 b7 cc bd
       -0.0813292 0.087581314 0.0013611756 -0.099959075
000310 da 49 57 3d 47 e6 cb bd ca 8f ce 3d 4f ec e8 bc
       0.052560665 -0.09956031 0.10086019 -0.028432993
000320 98 6c 46 3d 35 ab db 3d d5 74 50 bd d2 d5 5a 3d
       0.048443407 0.107260145 -0.05089267 0.05342657
000330 b7 23 2c 3c 80 01 10 bd 0e dc 45 3d 72 fe b1 3d
       0.010506562 -0.03515768 0.048305564 0.0869111
000340 e2 66 2d bd df 39 7f bd ac bd 5a 3c 07 e9 da 3d
       -0.042334445 -0.06231105 0.013350885 0.10688978
000350 3e aa 88 3d d9 24 5d 3d c5 58 8d bb b2 f1 59 3d
       0.06673096 0.05399022 -0.0043135607 0.053209014
000360 25 3f ad bd 5e 32 07 3d 4d 65 de 3c 37 b3 e0 3d
       -0.084593095 0.03300702 0.027147913 0.109716825
000370 65 36 94 3d f3 4a 97 bd 87 13 87 3d 63 2b 96 3d
       0.072369374 -0.07387342 0.065955214 0.07332494
000380 cc 17 6f 3b 70 f8 a6 3d 4e 2c c8 bd 64 db d9 bc
       0.003648269 0.081528544 -0.097740754 -0.026593871
000390 ae 73 06 3d 56 93 ba bd 20 94 53 3b 47 f9 95 bd
       0.032825164 -0.09110133 0.0032284334 -0.073229365
0003a0 b9 be 4e bd 6c 39 98 3c 8a ba c6 3d 18 cc 2a 3d
       -0.050474856 0.018582068 0.09703548 0.041698545
0003b0 b9 10 c3 3d e2 27 df 3d 4a 59 99 bd ca 22 c6 3d
       0.09524674 0.10896279 -0.07487734 0.09674604
0003c0 4c 31 06 bd 69 07 88 3d 1a 5b 20 3d ef a8 5d 3d
       -0.032761857 0.066420384 0.03914938 0.054116186
0003d0 1f f7 bd bc 07 55 a8 b9 47 f6 50 3c c1 4f cb 3d
       -0.023189126 -0.00032106807 0.01275403 0.09927321
0003e0 1c f0 a5 3c db 96 51 bd d5 03 ce 3d 15 82 c4 3d
       0.020256095 -0.051169258 0.10059325 0.09595124
0003f0 5c e8 9b 3c 08 f7 d5 bd 62 44 c0 bd 88 79 a6 3a
       0.019031696 -0.10447508 -0.09388043 0.0012701014

fc3.bias f4 [6]
000000 b9 8c 8b 3b 06 83 ff bd 42 63 0a 3e f2 bb db 3c
       0.004258719 -0.124761626 0.13514426 0.026823018
000010 fc a4 85 bd 26 5d 86 bd
       -0.06525609 -0.065607354
